23-peft/loraA/adapter_model.safetensors (safetensors, 864 bytes, 2 tensors)

base_model.model.0.lora_A.weight f4 [8, 10]
000000 18 5b 50 bd 88 00 f7 3d f8 83 00 3e b4 bb 6d be
       -0.050868124 0.12060648 0.12550342 -0.23216134
000010 7c 45 8d 3d 64 96 0e 3e 54 ba 9a be ca 80 57 3e
       0.06898019 0.13924557 -0.30220282 0.21045223
000020 04 29 08 3e 06 97 58 3e 26 23 89 be 08 5e 0b 3e
       0.13296896 0.21151361 -0.2678463 0.13610089
000030 a0 20 68 bd 55 cc 97 be ba eb 47 3e 80 43 ca 3c
       -0.05667174 -0.2964808 0.19523516 0.02469039
000040 80 bc 5e bd a9 eb 29 be a2 be 40 3e c7 39 95 3e
       -0.054378986 -0.16593803 0.1882272 0.29145643
000050 50 83 c6 3c 2d 53 89 3e 2e 55 90 bd 3a de 21 3e
       0.024232537 0.2682127 -0.07047497 0.15807429
000060 ad ea 12 be ac ce db 3d d6 21 5c 3e ea e1 12 be
       -0.14347334 0.10732779 0.21497282 -0.14343992
000070 f7 50 8b 3e d8 39 c1 3d 4d 33 80 3e 8f aa 84 3e
       0.2721021 0.09434861 0.2503914 0.25911376
000080 ca 9f 12 3e a8 29 80 3d 47 e7 8b 3e 52 63 a5 bd
       0.14318767 0.06257945 0.27324888 -0.080755845
000090 00 86 e3 bb 15 73 9b 3e ce 18 31 3e 31 85 88 3e
       -0.0069434643 0.30361238 0.17294618 0.26664117
0000a0 90 4d 0a bd 8c e9 94 be bc 7c 9b 3d c8 f9 54 bd
       -0.033765376 -0.29084432 0.075921506 -0.051996022
0000b0 9d 5b 9c 3e 00 a3 05 3b 40 72 95 bc 92 bd 0c 3e
       0.30538645 0.0020391345 -0.018242955 0.1374419
0000c0 d4 aa 9b bd 32 98 3d 3e a2 8b 67 3e d3 63 3f be
       -0.07600942 0.18515089 0.2261186 -0.18690424
0000d0 2a ad 11 3e 3c f3 a6 3d e1 09 95 be 84 97 9d 3d
       0.14226213 0.08151862 -0.291091 0.07694915
0000e0 c9 7a 84 3e 9a 34 e6 bd d0 68 09 3d 92 52 8b be
       0.25874928 -0.11240502 0.033547223 -0.27211434
0000f0 26 da 80 be 80 0d 52 bd 45 e4 a1 3e d8 35 07 3d
       -0.25166434 -0.051282406 0.31619468 0.033010334
000100 da 45 5a 3e fc 8a d8 bd ba d6 6d 3e 8e d4 73 3e
       0.21315709 -0.10573384 0.23226443 0.23811552
000110 80 4a 1c 3e 96 ce 24 3e 21 fc 99 be 29 ed 82 3e
       0.15262794 0.16094431 -0.30075172 0.25571564
000120 a5 d1 2f be a0 81 90 bd e9 be 71 be 00 d5 8e bc
       -0.17169817 -0.07055974 -0.23607983 -0.01743555
000130 9a fd 66 be 57 b3 81 3e 10 0b 52 bd bb 0b 99 be
       -0.22557679 0.25332138 -0.05128008 -0.29891762

base_model.model.0.lora_B.weight f4 [10, 8]
000000 00 00 00 00 00 00 00 00 00 00 00 00 00 00 00 00
       0.0 0.0 0.0 0.0
000010 00 00 00 00 00 00 00 00 00 00 00 00 00 00 00 00
       0.0 0.0 0.0 0.0
000020 00 00 00 00 00 00 00 00 00 00 00 00 00 00 00 00
       0.0 0.0 0.0 0.0
000030 00 00 00 00 00 00 00 00 00 00 00 00 00 00 00 00
       0.0 0.0 0.0 0.0
000040 00 00 00 00 00 00 00 00 00 00 00 00 00 00 00 00
       0.0 0.0 0.0 0.0
000050 00 00 00 00 00 00 00 00 00 00 00 00 00 00 00 00
       0.0 0.0 0.0 0.0
000060 00 00 00 00 00 00 00 00 00 00 00 00 00 00 00 00
       0.0 0.0 0.0 0.0
000070 00 00 00 00 00 00 00 00 00 00 00 00 00 00 00 00
       0.0 0.0 0.0 0.0
000080 00 00 00 00 00 00 00 00 00 00 00 00 00 00 00 00
       0.0 0.0 0.0 0.0
000090 00 00 00 00 00 00 00 00 00 00 00 00 00 00 00 00
       0.0 0.0 0.0 0.0
0000a0 00 00 00 00 00 00 00 00 00 00 00 00 00 00 00 00
       0.0 0.0 0.0 0.0
0000b0 00 00 00 00 00 00 00 00 00 00 00 00 00 00 00 00
       0.0 0.0 0.0 0.0
0000c0 00 00 00 00 00 00 00 00 00 00 00 00 00 00 00 00
       0.0 0.0 0.0 0.0
0000d0 00 00 00 00 00 00 00 00 00 00 00 00 00 00 00 00
       0.0 0.0 0.0 0.0
0000e0 00 00 00 00 00 00 00 00 00 00 00 00 00 00 00 00
       0.0 0.0 0.0 0.0
0000f0 00 00 00 00 00 00 00 00 00 00 00 00 00 00 00 00
       0.0 0.0 0.0 0.0
000100 00 00 00 00 00 00 00 00 00 00 00 00 00 00 00 00
       0.0 0.0 0.0 0.0
000110 00 00 00 00 00 00 00 00 00 00 00 00 00 00 00 00
       0.0 0.0 0.0 0.0
000120 00 00 00 00 00 00 00 00 00 00 00 00 00 00 00 00
       0.0 0.0 0.0 0.0
000130 00 00 00 00 00 00 00 00 00 00 00 00 00 00 00 00
       0.0 0.0 0.0 0.0
